…
args {}:
Error in callback <bound method _WandbInit._pause_backend of <wandb.sdk.wandb_init._WandbInit object at 0x000001DDD255D1E0>> (for post_run_cell), with arguments args (<ExecutionResult object at 1dd5420c6d0, execution_count=23 error_before_exec=None error_in_exec=None info=<ExecutionInfo object at 1dd5420c640, raw_cell="model" store_history=True silent=False shell_futures=True cell_id=vscode-notebook-cell:/c%3A/Users/60130060/hse-nlp/homeworks/hw4/hw4.ipynb#X63sZmlsZQ%3D%3D> result=BertForTokenClassification(
  (bert): BertModel(
    (embeddings): BertEmbeddings(
      (word_embeddings): Embedding(28996, 768, padding_idx=0)
      (position_embeddings): Embedding(512, 768)
      (token_type_embeddings): Embedding(2, 768)
      (LayerNorm): LayerNorm((768,), eps=1e-12, elementwise_affine=True)
      (dropout): Dropout(p=0.1, inplace=False)
    )
    (encoder): BertEncoder(
      (layer): ModuleList(
        (0-11): 12 x BertLayer(
          (attention): BertAttention(
            (self): BertSelfAttention(
              (query): Linear(in_features=768, out_features=768, bias=True)
              (key): Linear(in_features=768, out_features=768, bias=True)
              (value): Linear(in_features=768, out_features=768, bias=True)
              (dropout): Dropout(p=0.1, inplace=False)
            )
            (output): BertSelfOutput(
              (dense): Linear(in_features=768, out_features=768, bias=True)
              (LayerNorm): LayerNorm((768,), eps=1e-12, elementwise_affine=True)
              (dropout): Dropout(p=0.1, inplace=False)
            )
          )
          (intermediate): BertIntermediate(
            (dense): Linear(in_features=768, out_features=3072, bias=True)
            (intermediate_act_fn): GELUActivation()
          )
          (output): BertOutput(
            (dense): Linear(in_features=3072, out_features=768, bias=True)
            (LayerNorm): LayerNorm((768,), eps=1e-12, elementwise_affine=True)
            (dropout): Dropout(p=0.1, inplace=False)
          )
        )
      )
    )
  )
  (dropout): Dropout(p=0.1, inplace=False)
  (classifier): Linear(in_features=768, out_features=9, bias=True)
)>,),kwargs {}:
Error in callback <bound method _WandbInit._resume_backend of <wandb.sdk.wandb_init._WandbInit object at 0x000001DDD255D1E0>> (for pre_run_cell), with arguments args (<ExecutionInfo object at 1dd5c90ed40, raw_cell="model.bert" store_history=True silent=False shell_futures=True cell_id=vscode-notebook-cell:/c%3A/Users/60130060/hse-nlp/homeworks/hw4/hw4.ipynb#X63sZmlsZQ%3D%3D>,),kwargs {}:
Error in callback <bound method _WandbInit._pause_backend of <wandb.sdk.wandb_init._WandbInit object at 0x000001DDD255D1E0>> (for post_run_cell), with arguments args (<ExecutionResult object at 1dd5c90ec50, execution_count=24 error_before_exec=None error_in_exec=None info=<ExecutionInfo object at 1dd5c90ed40, raw_cell="model.bert" store_history=True silent=False shell_futures=True cell_id=vscode-notebook-cell:/c%3A/Users/60130060/hse-nlp/homeworks/hw4/hw4.ipynb#X63sZmlsZQ%3D%3D> result=BertModel(
  (embeddings): BertEmbeddings(
    (word_embeddings): Embedding(28996, 768, padding_idx=0)
    (position_embeddings): Embedding(512, 768)
    (token_type_embeddings): Embedding(2, 768)
    (LayerNorm): LayerNorm((768,), eps=1e-12, elementwise_affine=True)
    (dropout): Dropout(p=0.1, inplace=False)
  )
  (encoder): BertEncoder(
    (layer): ModuleList(
      (0-11): 12 x BertLayer(
        (attention): BertAttention(
          (self): BertSelfAttention(
            (query): Linear(in_features=768, out_features=768, bias=True)
            (key): Linear(in_features=768, out_features=768, bias=True)
            (value): Linear(in_features=768, out_features=768, bias=True)
            (dropout): Dropout(p=0.1, inplace=False)
          )
          (output): BertSelfOutput(
            (dense): Linear(in_features=768, out_features=768, bias=True)
            (LayerNorm): LayerNorm((768,), eps=1e-12, elementwise_affine=True)
            (dropout): Dropout(p=0.1, inplace=False)
          )
        )
        (intermediate): BertIntermediate(
          (dense): Linear(in_features=768, out_features=3072, bias=True)
          (intermediate_act_fn): GELUActivation()
        )
        (output): BertOutput(
          (dense): Linear(in_features=3072, out_features=768, bias=True)
          (LayerNorm): LayerNorm((768,), eps=1e-12, elementwise_affine=True)
          (dropout): Dropout(p=0.1, inplace=False)
        )
      )
    )
  )
)>,),kwargs {}:
Error in callback <bound method _WandbInit._resume_backend of <wandb.sdk.wandb_init._WandbInit object at 0x000001DDD255D1E0>> (for pre_run_cell), with arguments args (<ExecutionInfo object at 1dd5c90f340, raw_cell="model.bert.embeddins" store_history=True silent=False shell_futures=True cell_id=vscode-notebook-cell:/c%3A/Users/60130060/hse-nlp/homeworks/hw4/hw4.ipynb#X63sZmlsZQ%3D%3D>,),kwargs {}:
…
